Neural-GC/crnnmimic_simple.pt (torch, 781715 bytes, 8 tensors)

weight_ih_l0 f4 [300, 342]
000000 a8 ce eb bc d0 bd fc bc 9e a6 55 3d cf 40 3f 3c
       -0.028785065 -0.030852228 0.05216085 0.011673166
000010 1c 5a a5 bb cd 12 31 bd 8b da fe bc 99 c6 a9 3d
       -0.0050461423 -0.04323082 -0.031110069 0.082898326
000020 01 ef 19 3c 84 28 e0 3c 75 76 65 3d c2 36 24 bd
       0.009395362 0.02736307 0.056021173 -0.040091284
000030 e7 40 62 3d da a6 92 3d 45 c2 86 3c 5d de a3 bc
       0.055237677 0.07160731 0.016450057 -0.020003492
000040 6a 64 37 3d 86 44 19 3d 68 e0 8a bc 2d c6 4c bd
       0.044773497 0.037418865 -0.016952708 -0.049993683
000050 8c 51 7d 3c 1d 53 d3 3b 64 6d 38 3d 13 8f cf 3c
       0.015461337 0.006449117 0.045026198 0.025336778
000060 f2 fc ca 3c 5d b0 ef 3c b3 3f 21 bd fb 32 2f 3c
       0.024778817 0.029258901 -0.03936739 0.010693307
000070 9d 3a da bc c3 1a 5f bc ce 2b 17 bd ed 2d 30 3d
       -0.026639277 -0.01361722 -0.03690701 0.04301255
000080 8b bc fe bc 54 71 ad bc 9c 53 41 3d bf fa f9 bc
       -0.031095764 -0.021172203 0.047198877 -0.030515073
000090 12 28 83 bc e1 84 b1 bc 48 f9 c9 bc ec 9a 2b bd
       -0.016010318 -0.021669807 -0.024655 -0.041895792
0000a0 7c 43 1e bc 6e 10 a7 3d 6b 43 b6 bb 3f 5b 7f 3d
       -0.009659644 0.081574306 -0.005562236 0.06234288
0000b0 59 32 36 bd 81 df 7d 3d 0c 3b 77 3d 25 c0 dd 3c
       -0.04448161 0.061980728 0.060359046 0.02706916
0000c0 eb 36 85 3c 7b 64 bd bb 64 b7 f6 3c bf 0a 6c bc
       0.016261538 -0.0057798005 0.030116744 -0.014406859
0000d0 75 d1 91 bc a9 e8 79 3d 25 f0 a2 bc c8 b4 a4 3c
       -0.017800072 0.061012898 -0.0198899 0.020105734
0000e0 5f e5 24 3d b0 1c 56 bd 77 e5 ee 3b 6b f3 59 3d
       0.040257808 -0.052273452 0.007290538 0.053210657
0000f0 f2 0e ca bc 20 f3 97 3c b8 c9 06 3d 6e f6 53 3c
       -0.02466533 0.018548548 0.032907218 0.012937171
000100 06 5a 4e bd db 2c cc 3b 5d da aa bc 7f cb bf bc
       -0.05037882 0.006230933 -0.020856077 -0.023412464
000110 b8 18 05 bd ef 76 fd 3c 57 5a 00 3d c0 77 b9 bc
       -0.032494277 0.030940501 0.031336155 -0.022640109
000120 f1 f9 2a 3d 83 89 3f 3c fc 25 3d bd 90 d4 1c bd
       0.04174227 0.0116905 -0.046178803 -0.038288653
000130 9e 21 31 3d 55 03 73 3d 83 c1 70 3d 94 ac e2 bb
       0.04324495 0.05932935 0.058778297 -0.0069175456
000140 ec e4 dc 3c 1d dd 2d b9 4b dc 13 3e 66 65 fc bc
       0.026964627 -0.00016580937 0.14439504 -0.03081007
000150 b4 fa 2b 3d 3a 60 46 bc d7 88 98 3a 9c 7c 38 3c
       0.041987136 -0.012107903 0.0011637461 0.011260178
000160 c9 ab 13 bb 6d e2 49 bd 78 c2 37 3b 61 a1 29 3d
       -0.0022532812 -0.049288202 0.0028039496 0.04141367
000170 17 83 0c 3d 6b 7d a4 bd ac 20 ad 3c d0 86 3e 3d
       0.034304705 -0.08031734 0.021133743 0.046515286
000180 af 3e 12 bd 24 88 34 bc e2 0f 0b 3d 82 e7 15 3d
       -0.03570431 -0.011018787 0.033950694 0.036597736
000190 7e 46 f2 bc 8c 46 54 3d 12 69 10 bd f9 42 5d bd
       -0.029574629 0.05182509 -0.035256453 -0.05401895
0001a0 35 6a 00 3d ba d8 93 bc 1c fd 44 3d 42 f2 c5 3c
       0.031351287 -0.01804768 0.048092946 0.02416337
0001b0 a4 27 49 3c dc f1 f2 bc 8a 50 c0 bc b3 cd bc 3c
       0.0122775175 -0.029656343 -0.023475904 0.023047304
0001c0 39 ee 2e 3d 13 2f 28 3d a0 3a 18 bc 30 9a 44 3c
       0.042707656 0.04106052 -0.009291321 0.011999652
0001d0 dc a9 08 bd aa 82 c5 bb a3 40 e1 3c f3 3f 4e 3d
       -0.033365116 -0.0060275393 0.027496642 0.050353955
0001e0 be 74 75 3d 2a 70 d3 bc dc 16 ff bc b1 e2 00 bb
       0.059925787 -0.02581032 -0.03113883 -0.0019666369
0001f0 38 9f 68 bd a4 1e 08 bd 09 a3 2f bd ec b7 4b bb
       -0.056792468 -0.033232346 -0.04288009 -0.0031084968
000200 12 8b 24 bc e7 48 2b 3d 72 db 04 3d 60 28 59 3c
       -0.010042923 0.041817572 0.03243584 0.013254255
000210 96 70 ff bc 8b 7d a7 3b 18 ed 99 bc 1f a6 d7 3c
       -0.031181615 0.0051114014 -0.018789813 0.02632433
000220 a2 67 c9 3b e7 f3 94 3d ba 38 5e bd ac 1e 2f bc
       0.006146387 0.07273083 -0.054253317 -0.010688465
000230 42 44 78 3d 55 a8 52 3d 3a b1 65 3d ed bf 01 3d
       0.06061197 0.051430065 0.05607722 0.031677175
000240 db 6d dc bc 5b 7d 49 bb 4a b0 be 3c 04 4a e9 bb
       -0.026907852 -0.0030744884 0.02327742 -0.007119419
000250 89 48 5e bd 0f b2 23 bd b2 82 eb bc d3 59 d7 3c
       -0.054268394 -0.03996473 -0.028748844 0.026287949
000260 f2 85 21 3d e5 58 8c bd d6 c4 0c 3e 4c 3d 3e 3d
       0.03943438 -0.06852893 0.13746962 0.046445176
000270 86 45 8f bd 28 30 7c 3c 03 e0 34 3d 38 9c 08 3c
       -0.069956824 0.015392341 0.044158947 0.008338027
000280 3d 94 58 bd 44 c2 fb 3c c4 af 48 3d fe 2f b8 bc
       -0.052875746 0.030732282 0.04899575 -0.022483822
000290 88 78 46 bc b5 6b 71 bd ce 15 e1 3c 1a e0 e0 bc
       -0.012113698 -0.058940608 0.027476218 -0.02745061
0002a0 ea 4e f8 bb 73 49 f5 bc 71 2d 23 3d 37 ee 50 bd
       -0.0075777667 -0.02994225 0.03983826 -0.05100843
0002b0 cc 07 93 bb 40 99 07 3d 2d f4 69 3d c0 63 80 3d
       -0.0044870134 0.033105135 0.05711763 0.06269026
0002c0 ee ca ed 3c 2d 78 3f 3c 61 d9 4e 3d df de 01 3d
       0.029027428 0.011686367 0.050500277 0.031706687
0002d0 fd cc e9 bc f7 e9 46 3d ca 2c 04 3d 2f c0 0a ba
       -0.028540129 0.04856297 0.032269277 -0.000529292
0002e0 f2 e6 f1 3c 4e d0 43 3d b0 be 6d 3c 4e 64 47 bc
       0.029529069 0.047806077 0.0145107955 -0.012169911
0002f0 fa d0 93 bc 2e ec 25 bd 8a 0a 44 bd 22 ba 3e bd
       -0.018043984 -0.04050844 -0.047861613 -0.04656423
000300 1f 76 0f 3d 02 07 4c bd 1c 3d 50 bc a5 d8 26 3d
       0.03502476 -0.04981137 -0.012709882 0.040733952
000310 9d c4 bd bd a0 61 dd 3a d1 1b 93 3c 8b bb 29 bc
       -0.09266017 0.0016890056 0.0179576 -0.010359655
000320 19 2d 1e bd 02 2b 9d 3c e1 0a 94 bd 0f dc 48 3d
       -0.038617227 0.019185547 -0.072286375 0.04903799
000330 42 49 0d 3c 13 d3 1f bd 32 75 76 3d 62 8c 2a 3d
       0.008623423 -0.039019655 0.06017036 0.041637786
000340 38 f5 c2 bb 0a 19 96 bc d0 64 b7 3c fc 02 9d bd
       -0.0059496425 -0.018322486 0.022386938 -0.07666585
000350 7a 4c da 3c 4e e7 39 ba 5b e4 2f bc 5c bb e4 bc
       0.026647795 -0.0007091657 -0.0107355965 -0.027921371
000360 59 aa 5a bd 45 ba 17 3d 42 87 93 39 a3 1f 1e bd
       -0.053385112 0.037042875 0.000281388 -0.03860439
000370 28 f0 1f 3d 0d 20 0a bd 33 32 7a 3d 4e 33 30 3c
       0.03904739 -0.033721972 0.06108303 0.0107544195
000380 a8 2e 29 bd 9b 2c e4 3c 4a b5 61 bd 0d 3a 27 3d
       -0.04130426 0.0278533 -0.05510453 0.040826846
000390 6b 94 89 3c 19 75 0a 3d 54 ba d2 ba ae 41 3c 3d
       0.016794404 0.03380308 -0.0016077259 0.045961075
0003a0 83 14 a6 3c 61 76 49 3c 1b 42 0a 3d a7 d7 85 3a
       0.020273453 0.01229629 0.03375445 0.0010211364
0003b0 26 e2 b8 bc e6 26 90 3c 2f 04 14 3c c6 2f bf bc
       -0.022568773 0.017596673 0.009034201 -0.02333821
0003c0 70 9f da 3b 1f 42 47 3b a2 dc 2f 3d 7c a8 d4 ba
       0.0066718385 0.0030404401 0.04293502 -0.0016224529
0003d0 a1 3c 1d bd 38 5b d8 bc 02 a8 0c bd 3d e9 a6 bb
       -0.0383879 -0.026410684 -0.034339912 -0.005093722
0003e0 f9 c5 06 bd 16 1d 0d bd b8 40 39 3d 01 e7 23 3d
       -0.032903645 -0.034451567 0.045227736 0.040015224
0003f0 18 0c 99 bc a5 a5 72 3c de 54 3c 3d 6b ff 58 bd
       -0.018682525 0.014810001 0.045979373 -0.05297796

weight_hh_l0 f4 [300, 300]
000000 97 3f cd 3a 70 b7 f8 3c c6 31 e3 bc 3d ad e5 3b
       0.001565921 0.030360907 -0.027733695 0.007009177
000010 61 12 26 3d 83 8b 48 3c df 76 40 3d 36 64 12 bd
       0.04054487 0.012240293 0.046988364 -0.0357401
000020 2c 58 eb 3c 4f 47 a4 3c 52 a8 08 bd b6 8e 4f bd
       0.028728567 0.020053534 -0.033363648 -0.05067321
000030 ec cc 84 bc 1e 37 9e bb 39 3e 2a 3d 3a 58 03 bd
       -0.016210996 -0.004828348 0.041563246 -0.03206656
000040 c2 72 0d 3d 19 9e ce bc ba cf d3 bc ae 3d 0c 3d
       0.03453327 -0.025221871 -0.025855888 0.03423851
000050 5b 02 1a 3d 83 85 c6 3b 0b 70 da bc 98 21 07 3d
       0.037599903 0.0060583963 -0.026664754 0.032991022
000060 22 39 9b 3b 78 83 27 3d bd bb 11 3d 2f 12 22 bd
       0.0047370354 0.040896863 0.03557943 -0.039568122
000070 12 e6 b5 3c 90 24 ad 3c e7 6c 06 3c 66 0d bb 3c
       0.022204433 0.021135598 0.008204675 0.022833537
000080 d6 aa 14 3d 94 41 ca bc 7f 5b 35 3d 85 5e 24 3d
       0.036295734 -0.024689473 0.04427671 0.040129203
000090 07 12 4c 3d f4 d1 1d bd 3f 73 7a 3d 59 f1 29 3c
       0.04982188 -0.038530305 0.061145063 0.010372483
0000a0 ca d6 09 3d 52 fb 06 bd bb b7 1c bc 2a 96 46 bc
       0.033652104 -0.03295452 -0.009565289 -0.012120763
0000b0 46 3d 60 bc cb 0d 67 3d 9d 47 ac 3c 35 28 01 bc
       -0.013686484 0.05640964 0.021030242 -0.007883121
0000c0 89 be 13 bc e1 7c 11 3d 62 04 1f bd 7f b1 e3 bc
       -0.009017595 0.035519484 -0.03882254 -0.027794598
0000d0 18 9d 92 bb 14 e8 5a 3d 75 ae ce bb 24 5b 0e 3d
       -0.0044742934 0.053443983 -0.006307418 0.034754887
0000e0 1e 5c 3c 3d f9 a7 92 3c cb cd 6e bc 93 73 61 3d
       0.045986287 0.017902361 -0.014575432 0.05504186
0000f0 f2 38 00 bd c8 e5 d6 3c da db e2 bc 76 df 0f 3d
       -0.031304307 0.026232615 -0.027692724 0.03512522
000100 06 17 04 3d b2 3d a5 bc ae 7f 26 bd 25 f8 95 3c
       0.03224852 -0.02017102 -0.04064911 0.018306801
000110 59 85 22 bd 2b 0a a5 bc 34 39 31 bd fa a0 0d bc
       -0.03967795 -0.02014645 -0.043267444 -0.008644337
000120 18 8c 58 3c f2 1b 30 bc 88 4f 0f bc e9 f5 38 bd
       0.013216995 -0.01074885 -0.008746989 -0.045156393
000130 2f 32 e2 3c cd 41 7a bd ea 1e d0 3c 21 8d 83 bd
       0.02761182 -0.06109791 0.025405366 -0.064234026
000140 04 2d df bb 05 87 bf 3d e3 77 63 3d 60 42 d4 bc
       -0.006810786 0.09351925 0.055534255 -0.025910556
000150 95 a4 ab 3b 29 ea e2 3c 29 8e 44 bd cf 71 e6 3c
       0.0052381256 0.027699547 -0.047987137 0.02813044
000160 c9 e2 4b bd 6b 40 66 3b 0b 83 75 3b fc ef ca bb
       -0.049776826 0.003513361 0.003746214 -0.006193159
000170 c8 21 6b 3d 63 88 fa bc d3 ee 2a bd 09 3b 1a 3d
       0.057405263 -0.030582612 -0.041731667 0.037653957
000180 1d dd c3 3b 29 86 93 bc 63 6a 86 3c b4 43 0e bd
       0.0059772865 -0.018008308 0.016408151 -0.034732535
000190 45 54 44 bd 46 97 65 bb 83 e5 0c bd 5b a4 4b 3c
       -0.04793193 -0.0035032793 -0.034398567 0.012429322
0001a0 6e e2 22 bd 30 9a e1 3c 8f a6 9e bc ff d6 3c 3c
       -0.03976672 0.027539343 -0.01936653 0.011525868
0001b0 6e e7 69 bc 91 f1 6a bc 96 6c c4 bc 3f 50 0d bd
       -0.014276369 -0.0143398205 -0.023977559 -0.034500357
0001c0 e2 b1 3a 3d d7 8c 4c bd ec ce 66 bd 33 e7 55 bd
       0.0455798 -0.049939003 -0.05634968 -0.052222442
0001d0 13 2f e7 3c 31 8a 26 3d a2 eb 14 3d cf b0 06 3b
       0.028220689 0.040659133 0.03635753 0.0020552163
0001e0 40 22 83 bc 25 12 50 bd f8 c5 55 bd 77 5e 78 3d
       -0.016007543 -0.050798554 -0.05219075 0.060636964
0001f0 79 44 52 bd a6 d5 9f 3c 37 8c fe 3c 3b 5b f0 bc
       -0.051334832 0.019511055 0.031072719 -0.029340377
000200 a3 95 07 3d eb a4 48 3d b2 d9 4f 3d ab d4 49 bc
       0.03310169 0.048985403 0.05074472 -0.01231877
000210 8c e8 cd 3a 16 74 00 3d 96 ea 15 3d 75 3d 5e bd
       0.0015709563 0.03136071 0.03660067 -0.05425783
000220 cc 11 aa 3c 19 07 b3 3c 2c ca b0 bc f5 e8 1d bc
       0.02076044 0.02185397 -0.021580778 -0.009638061
000230 37 0a 53 bd 22 ce 40 bc 37 83 05 3d 3d 8f d4 bb
       -0.051523414 -0.011767896 0.03259584 -0.006486802
000240 20 9e 22 3d 6a 9a 2f bd 8e 8e 31 bc 34 78 50 bd
       0.03970158 -0.04287187 -0.01083721 -0.050895885
000250 cc b9 12 3d 21 91 33 3d fd 13 8c bc e0 17 71 3c
       0.03582172 0.043839578 -0.017099375 0.014715165
000260 d4 44 0f 3a e6 3c 18 3c 71 57 30 3d 3f 1f 0a 3d
       0.0005465273 0.009291863 0.04305214 0.033721205
000270 f9 82 fb 3c 37 3c 23 3d f9 c3 84 bd 1d e7 ae 3c
       0.030702101 0.039852347 -0.06482691 0.021350438
000280 b8 80 75 bd a4 43 74 3c f6 c1 08 3c f1 6e af bc
       -0.05993721 0.014908705 0.008347025 -0.021415206
000290 20 fc 5e 3d 14 b5 7b 3d 59 12 23 3d e7 3f 84 bc
       0.054439664 0.061451986 0.03981242 -0.016143752
0002a0 ef 5d 06 bc da db 32 3b a6 af a2 bc 34 c5 86 3a
       -0.008201106 0.0027291686 -0.019859146 0.001028216
0002b0 8b 50 73 3d bb 41 3b 3c 5c b9 05 bd 4a 77 a3 bb
       0.059402984 0.011429246 -0.032647476 -0.0049885856
0002c0 85 ec a7 3c 0c 01 cc bc db 96 40 bd f6 04 eb bc
       0.020498523 -0.024902843 -0.047018867 -0.028688889
0002d0 df 8c 88 bd 30 bd 00 bc 1a d1 23 bd 7b 90 b6 3c
       -0.06667494 -0.007857606 -0.039994337 0.02228569
0002e0 dc bb 9f bc 50 74 80 bd 33 86 6c b9 24 74 19 bd
       -0.019498758 -0.06272185 -0.00022556707 -0.037464276
0002f0 70 bb 40 bd 97 7e b3 3c e7 8b d5 3b a6 67 80 3d
       -0.047053754 0.021910949 0.006516922 0.06269769
000300 48 bb 0a bc a6 2a da bc c4 36 57 bc f4 03 3e 3d
       -0.008467503 -0.026631664 -0.013135616 0.04639049
000310 fd b3 3c bd 9c f5 9f bc 3c c5 06 bd 57 ab 95 bc
       -0.046070088 -0.019526295 -0.03290294 -0.018270178
000320 74 15 60 bc 83 28 7f 3d 88 c8 81 3c 10 55 cd 3c
       -0.01367699 0.062294494 0.015842691 0.025064975
000330 72 98 49 bd dd 65 71 bd e6 59 cf 3b 7c 86 b5 3c
       -0.04921765 -0.058935035 0.0063278554 0.022158854
000340 94 07 29 3d 83 3a 0c 3d 59 14 3d bd 48 30 48 3d
       0.041266993 0.03423549 -0.046161983 0.04887417
000350 42 ff 09 3d 58 6c e0 3c 4e ad 03 bd ee a3 65 3b
       0.0336907 0.027395412 -0.032147698 0.0035040337
000360 31 28 26 3d 24 49 c2 bc 2c 2c 73 bd 16 27 be 3b
       0.040565673 -0.023716517 -0.059368297 0.0058029993
000370 4f 01 05 bd e6 67 2a bd fc a3 2b bd c5 1b f0 38
       -0.03247195 -0.04160299 -0.041904435 0.00011449264
000380 52 1a 90 3c 39 a3 60 3d e5 c8 5a bb d7 bd 6a bd
       0.017590676 0.05484316 -0.0033383903 -0.05730995
000390 98 a6 0d bd 23 5b 20 3d 63 0b bc 3c 50 cd 0c 3d
       -0.034582704 0.039149415 0.022954648 0.03437549
0003a0 34 0b 43 3d 0b 92 3e 3d 4a 16 7c 3c e6 e9 50 3d
       0.047618106 0.046525996 0.0153861735 0.051004313
0003b0 48 58 d0 bb 2c 40 05 bd 7f c9 5f bd 7d 97 b0 bc
       -0.00635818 -0.032531902 -0.05463552 -0.02155661
0003c0 7b f2 9c 3d d1 cb 66 bd 65 5a 8a bd ba 76 2d bd
       0.07663437 -0.05634672 -0.06755523 -0.042349555
0003d0 fd d2 0b bd 17 b7 7c 3b 54 9d 72 bd 29 c5 a2 3c
       -0.03413676 0.0038561278 -0.05923207 0.019869404
0003e0 5b b3 13 3d 79 9b 09 bd 36 1e a1 3b 55 92 42 bd
       0.03605972 -0.033595536 0.0049169315 -0.047502834
0003f0 0e 27 1f 3d be 66 b4 bc 7f 8e 80 3d ef ef ed 3c
       0.038855605 -0.022021648 0.06277179 0.029045073

bias_ih_l0 f4 [300]
000000 c6 14 36 bc 2d 84 fd bb 9d fa 7f 3d b7 74 04 3d
       -0.011113351 -0.007736704 0.062494863 0.03233787
000010 be 5d dc 3c 2b 5c d4 3b c9 a8 9c 3c 1c 31 13 3d
       0.026900169 0.006480714 0.019123452 0.035935506
000020 18 89 32 3c 66 37 05 bc 65 80 a8 3c 03 fd 81 3d
       0.0108969435 -0.008130884 0.020569036 0.06347086
000030 39 ec 3b 3d 54 3c 29 3d bd a6 03 bc 11 70 90 3c
       0.045879576 0.0413173 -0.008035359 0.017631562
000040 d9 fd 3c 3c 9c 6f 98 3b e9 cd 36 bd d8 d8 40 3c
       0.011535131 0.0046519767 -0.044629965 0.01177045
000050 97 81 51 bb 8a 22 0b 3c b2 f4 68 bd 28 15 69 3d
       -0.003196811 0.0084921215 -0.056873985 0.05690494
000060 4c 3f 7d bd 24 22 9c 3c c2 f6 ba 3c 4a b8 6f 3b
       -0.061827943 0.019059248 0.022822741 0.003657835
000070 54 eb cf 3c a7 d7 05 bc 93 68 ed 3a fc dc ca bc
       0.025380768 -0.008169091 0.0018112831 -0.024763577
000080 e4 47 3a 3d ae 7e 4f bd c7 b3 c1 3c 15 0f eb 3b
       0.045478716 -0.05065792 0.023645295 0.007173429
000090 d7 4c 8d 3c 41 55 54 bd 59 9b cd 3c 85 f3 38 3d
       0.017248554 -0.051839117 0.02509849 0.045154113
0000a0 f6 10 6f 3c dc 7d c8 3c d0 87 22 bd 19 4d 1f 3d
       0.014591446 0.024474077 -0.039680302 0.038891885
0000b0 d3 d5 e4 bc d0 5a 0b bd 50 f7 7e bb ec 54 0a bd
       -0.02793399 -0.034022152 -0.0038904734 -0.033772394
0000c0 32 71 32 bd 71 0e 16 bd f4 e7 2e bd c1 d2 2b bd
       -0.043564983 -0.036634866 -0.042701676 -0.041949037
0000d0 47 25 03 3d d4 71 23 3d b4 fc dd bc 0a 0b 88 bb
       0.032017972 0.039903477 -0.027098037 -0.0041517066
0000e0 b9 cb 17 bc 3c ec 83 3c 2c 78 10 bc bb 39 1c 3c
       -0.00926488 0.016103856 -0.008817714 0.009535248
0000f0 a2 4d cb 3c e3 5c 11 3c 88 3f c0 bc 9d 93 55 3c
       0.024817292 0.008872244 -0.023467794 0.013035682
000100 0a 22 45 3c 33 75 3c bd bd 69 1e bd 67 d1 38 3d
       0.012032041 -0.046010207 -0.03867506 0.045121577
000110 41 e2 42 3d ea ee d3 3c 6c 1f aa bc c9 d3 a7 3b
       0.047579054 0.025870759 -0.020766936 0.0051216823
000120 be 1a 02 3c 50 39 31 3d 8c 62 c4 b9 a6 23 1d bb
       0.007940946 0.043267548 -0.00037457456 -0.0023977547
000130 03 2e 09 3c 07 98 b0 bc f1 3e ae bc a5 6f 6d bd
       0.008372786 -0.021556867 -0.021270247 -0.0579678
000140 cd 24 5f bb bb 0a 60 bd 93 db d6 3c dc 1c 19 bd
       -0.0034049035 -0.054697733 0.026227748 -0.037381038
000150 cb c9 a3 3c a4 ec 0f 3c e0 ef 16 bc fb 78 80 3c
       0.019993683 0.008784447 -0.009212464 0.015682688
000160 6d fc 90 3c 88 f3 f6 3b d3 a4 d3 3c 10 38 00 3d
       0.017698491 0.0075363554 0.02583543 0.031303465
000170 4c 98 c5 3c 87 60 75 ba 6b 57 c4 3c c8 6a 7d 3c
       0.024120472 -0.0009360392 0.023967465 0.015467353
000180 c8 c1 d1 bc 6f c8 7d 3c 55 6d 33 bd 83 61 a3 bc
       -0.025605097 0.015489682 -0.04380544 -0.019943958
000190 ab 7b ed bc ca 89 66 3d 49 ce 6b bd 50 80 00 3d
       -0.028989634 0.05628375 -0.057569776 0.03137237
0001a0 97 9f 23 3d 3a aa d6 bc 4d 19 21 3d ce 48 ae 3c
       0.03994712 -0.026204217 0.03933077 0.02127495
0001b0 93 a7 18 bd 3c 51 38 3d 8c d1 5b 3d 1f 3f 46 3d
       -0.037269186 0.044999346 0.053666636 0.04840004
0001c0 f0 cb 31 bd 0a c0 f4 3c 2c b8 f7 3a 64 8f b4 bc
       -0.04340738 0.029876728 0.0018899492 -0.02204103
0001d0 d8 c3 1a bc fd ac 28 3d 39 a7 5b bc 02 e7 8e 3c
       -0.009446107 0.0411806 -0.013406568 0.017444137
0001e0 09 82 23 bc bf e5 59 bc 22 24 2c 3d 75 f9 1b 3d
       -0.009979733 -0.013299405 0.042026646 0.038079698
0001f0 1d 14 16 3d f2 12 47 bd e1 91 55 3d 55 2d 40 3d
       0.036640275 -0.048602052 0.052141074 0.046918232
000200 bc 72 4d bd 02 93 5e bd 6e 8c 3d bc c5 a1 c6 3c
       -0.050158247 -0.054339416 -0.011569126 0.02424706
000210 62 57 9c 3b a8 06 0c 3d 7e 4b 04 bd a8 98 f9 bc
       0.004771159 0.034186035 -0.032298557 -0.0304683
000220 d1 2e e3 3c cc e7 d3 3c 16 c0 ab bc be f1 36 3c
       0.027732285 0.025867365 -0.020965617 0.011166034
000230 74 52 a3 3c 66 41 2a bc 0e 03 53 3d 36 43 37 3d
       0.019936778 -0.010391569 0.051516585 0.04474183
000240 2f 7e 66 bc b4 e9 ca 3c f2 4f 9e 3c 60 d4 95 3c
       -0.01406817 0.024769641 0.01932523 0.018289745
000250 42 a7 2c 3c c0 10 1e bd d3 24 79 3d c0 3d 0e bd
       0.010537924 -0.038590193 0.060826134 -0.03472686
000260 b3 e8 84 3c 0a 08 17 bc 97 2f 19 3c 49 69 49 bd
       0.01622424 -0.009218225 0.009349725 -0.049172673
000270 c9 93 ef 3c 1a 4e 4d bd 34 b4 f2 bb 71 0f d9 bb
       0.029245274 -0.05012331 -0.007406736 -0.006624155
000280 3c ff 63 3d 12 4f 2b 3c cd 56 da bc fc cc 41 3d
       0.055663332 0.010455864 -0.026652718 0.04731463
000290 2a a8 46 3d 37 d5 e3 3c 80 d5 19 bd 2d e3 d4 3c
       0.048500217 0.02781163 -0.037557125 0.025987232
0002a0 e2 16 16 3c 55 b6 3b bc 94 bc d5 3c f4 51 3e 3c
       0.009160729 -0.011457046 0.026090898 0.011616219
0002b0 71 87 7a bc 65 46 40 bd a8 1d 01 bc e7 2f 5b 3d
       -0.015291081 -0.046942133 -0.007880606 0.05351248
0002c0 68 9a 6d 3d e8 e5 53 bd d7 02 af bc ce 6c b6 3c
       0.05800858 -0.051732928 -0.021363659 0.022268679
0002d0 30 99 57 bd d8 ae 1b bd 65 2a d3 bc ba 6e 1c 3c
       -0.052636325 -0.03800854 -0.025777051 0.009547884
0002e0 76 84 92 3b 16 e3 38 3d 13 ce 69 3c 67 22 63 3d
       0.004471357 0.04513844 0.014270323 0.05545273
0002f0 9e 7c 1c bd fb 7c 1f bd 39 3b 3c bd 0c 43 52 bd
       -0.03820478 -0.03893755 -0.045954917 -0.051333472
000300 dd a1 52 bc 6e 80 e1 bc a9 01 8c 3c 2b 49 55 3d
       -0.012855974 -0.02752706 0.017090635 0.05207173
000310 ad 0b 37 bd 26 f6 78 3c b1 84 26 3d 94 35 70 3c
       -0.04468887 0.015195405 0.040653888 0.0146612115
000320 06 05 60 bd 07 ce 17 3c cc 97 b9 3c 7a 47 55 bd
       -0.05469229 0.009265429 0.02265539 -0.05207012
000330 87 c3 35 bd 5f b3 4d bd b2 82 0e 3c 1d 70 0c bd
       -0.044375923 -0.05021989 0.008698152 -0.034286607
000340 59 a2 e9 3c a6 0d 38 3d 49 49 ad 3c 76 e9 48 bd
       0.028519796 0.04493489 0.02115311 -0.04905077
000350 89 cc 4e 3d f4 40 4d 3d cf 43 20 bd 3e 4a 7b 3c
       0.05048803 0.050110772 -0.039127167 0.015337525
000360 3e d0 10 bc 1a 70 c8 bc c8 11 8f bc 6b 87 20 bd
       -0.008838711 -0.024467517 -0.017464533 -0.039191645
000370 3c 1f 66 39 be 53 29 bc 5c 47 4e bd 7f 78 cf bc
       0.00021946145 -0.010334907 -0.050361022 -0.025326012
000380 41 c4 29 bc 3b 1f 71 bc 82 1e 01 3d 98 f8 c4 3c
       -0.010361732 -0.014716919 0.031523235 0.02404432
000390 c9 14 6d bc 03 16 5b bd 8e 2e 9a 3c a9 30 36 bc
       -0.014470288 -0.05348779 0.018821027 -0.01112
0003a0 4c 56 9c bc b7 b8 50 bd d5 98 ee bc ac 03 0e 3d
       -0.019084118 -0.050957408 -0.02912561 0.03467147
0003b0 13 43 f5 bc 8e ee 35 bd 29 63 2f bd 4c 68 c0 ba
       -0.02993921 -0.044416957 -0.042819176 -0.001467952
0003c0 66 83 f7 3a f6 53 84 3c 86 27 8e bd b8 4e a0 3c
       0.0018883764 0.016153317 -0.06941132 0.019568786
0003d0 23 94 26 3d 7c dc da 3b 43 7d a6 3c e7 73 16 bd
       0.040668618 0.006679116 0.020323401 -0.036731627
0003e0 ec 85 85 3d 23 27 63 3d 26 67 d7 3c b6 93 ff bc
       0.06519684 0.055457246 0.026294302 -0.031198364
0003f0 e1 22 49 3a bd 9c 4b 3c e5 31 20 3d 5d c9 27 bd
       0.0007672739 0.012427506 0.039110083 -0.04096352

bias_hh_l0 f4 [300]
000000 93 f5 86 3c cd 76 0e 3d c8 c2 37 3d cb a9 e8 3c
       0.01647452 0.034781266 0.044863492 0.028401276
000010 e6 b5 5f 3c 0e ed c5 bc 63 45 77 bd 96 49 0b bd
       0.013654208 -0.024160888 -0.060368907 -0.034005724
000020 5f b0 eb bc 1e a1 19 bd d6 8e 3d 3a e0 66 28 bd
       -0.028770624 -0.03750717 0.0007231062 -0.041113734
000030 53 95 61 3d 52 90 67 bb b3 8c bb ba 10 a1 1a 3d
       0.055074047 -0.0035333824 -0.0014308899 0.037751257
000040 0c 28 2b 3d a9 bd f0 3c a8 c2 28 bd c4 d3 6f 3d
       0.04178624 0.029387312 -0.041201264 0.058551565
000050 5b 99 54 bc 85 9c 65 3d 02 5a ed 3c d4 36 83 3c
       -0.012976016 0.05605747 0.028973583 0.016017355
000060 71 e4 6c bd 78 c4 f1 bc c1 7f e7 3b 6d 16 f2 3c
       -0.057835046 -0.029512629 0.00706479 0.02955171
000070 42 81 ba bc 1f be c8 3c 6d 4d 14 3c 2a e5 bc bc
       -0.022766713 0.02450472 0.009051663 -0.023058493
000080 ee 06 e9 3c 32 46 39 37 bb 45 29 3d 6b 9c 2e 3c
       0.028445687 1.1043203e-05 0.041326266 0.01065741
000090 20 0c c7 3b 55 9e 4c bd eb 2c 84 3c ce f9 31 3c
       0.0060744435 -0.049955685 0.0161347 0.010862781
0000a0 d4 cb 62 bd 58 c3 6c 3c c0 f6 cc bb 7b c9 bd 3c
       -0.055370167 0.01445087 -0.006255001 0.023167362
0000b0 f4 6b 67 3d 54 38 3a bd bd 81 ed 3b ba 22 5b bc
       0.056499436 -0.045463875 0.007248132 -0.013374979
0000c0 fd 2d fc 3a 46 9d 5f bd c8 98 9b bb 6d d6 ba 3c
       0.001923978 -0.054593347 -0.0047484376 0.022807324
0000d0 b1 e2 96 3c 69 c5 59 3d 81 bd 6b bd 0d 6e d5 3b
       0.018418642 0.05316678 -0.057553772 0.006513363
0000e0 10 44 a7 3c 28 23 2c 3d db 2f 55 bb d5 2b f9 3c
       0.020418197 0.042025715 -0.0032529745 0.030416409
0000f0 c3 86 1d bd 78 0a 2c 3d 7c c4 84 bc 72 b4 0a bb
       -0.038458597 0.04200217 -0.016206972 -0.0021164683
000100 3c 1e 3c 3d 5d 20 89 3c 4a cf 27 3d 10 8a 20 bd
       0.04592727 0.016739065 0.04096917 -0.039194167
000110 63 fe 4b 3d d6 cc 0f bd 01 72 91 bc da 48 52 bd
       0.04980315 -0.035107456 -0.017754557 -0.051339008
000120 59 c6 d3 bc 68 64 d5 bc 3b 0b 33 3d 16 d6 10 bc
       -0.025851415 -0.026048854 0.043711882 -0.008840105
000130 64 d5 3c 3d 04 0d 55 bd 2e d1 10 bd 61 c9 47 bd
       0.046101943 -0.052014366 -0.03535574 -0.048776034
000140 0d 08 ea 3c a5 7f 49 bd 03 51 87 bc fd a1 cd bb
       0.028568292 -0.049193997 -0.016518122 -0.006275414
000150 7a 0b 13 bd 02 31 1e 3d 7a 2a db 3c 81 e3 0f 3d
       -0.035899617 0.038620956 0.026753653 0.035129074
000160 e3 d5 9e 3a 9d 89 9d bc 6b bb f6 3c 97 41 b0 3c
       0.0012118187 -0.019230658 0.030118665 0.02151565
000170 f2 91 4a 3d 6b 01 68 3c e9 64 49 3d 11 d4 e0 bc
       0.04945559 0.014160494 0.0491685 -0.027444871
000180 54 82 96 3c e0 18 e1 3b 79 86 41 3d 3c 82 80 3c
       0.018372692 0.0068694204 0.047247384 0.0156871
000190 dd 55 b2 3b 1b cb 9c bc f4 a9 8c bc 08 c2 d2 bc
       0.0054423646 -0.019139817 -0.017170884 -0.025727287
0001a0 a0 33 42 bd 12 41 01 3d 35 b5 18 bd 3d e2 6e bc
       -0.047412515 0.031556197 -0.037282187 -0.014580307
0001b0 4a 80 59 3c 1e f5 1b 3d 5d 2e 75 3d 72 da 2e 3d
       0.013275215 0.03807556 0.05985867 0.042688794
0001c0 28 bb 4c bc 6f 0f 1c 3d e1 8b cf 3b e8 1c 06 3d
       -0.012495793 0.038100656 0.0063338135 0.03274241
0001d0 84 8e 0d bd ba 5e 93 3c 78 e5 c3 3a b9 82 67 3c
       -0.03455974 0.017989505 0.0014945706 0.014130288
0001e0 f8 18 3d bd b2 86 52 3d 65 2b cf 3c 91 4c bd ba
       -0.04616639 0.051397987 0.025289247 -0.0014442374
0001f0 2c 91 9f 3c b0 2d 38 bc 42 fa 0c bd 3b 30 18 3d
       0.019478403 -0.0112413615 -0.034418352 0.03715537
000200 c8 ed 79 bc 32 30 c8 bc fd 15 3d 3d c4 61 53 bc
       -0.015254445 -0.024437044 0.046163548 -0.012901727
000210 3b 40 db bc 4c e0 66 bc 4f 8e 1d 39 6c 33 3e 3d
       -0.026764026 -0.0140915625 0.00015025701 0.04643576
000220 a7 27 bc bb 28 22 21 3d e8 df 37 bd 5a 36 c4 3b
       -0.0057420316 0.039339215 -0.044891268 0.0059879245
000230 54 c1 e1 3c fc b4 fb bb 9f 34 3d bc 55 eb c5 bc
       0.027558006 -0.007681487 -0.01154819 -0.024160067
000240 26 b2 2e bc cc 31 85 3c 42 57 4c bd e4 73 61 3d
       -0.010662591 0.016259097 -0.049887903 0.055042163
000250 cb da 27 bd 5b 7b 2f 3d ad 02 31 bd 8a 76 05 3a
       -0.04098014 0.04284225 -0.043215442 0.0005091211
000260 eb 50 ba 3c c9 0e 44 bd 9e 3f 18 bb c1 95 d2 3c
       0.022743663 -0.047865663 -0.0023231278 0.025706174
000270 e7 32 80 bc ab 1d a6 bc 35 9f eb 3c 06 c8 69 bb
       -0.015649272 -0.020277819 0.02876244 -0.0035672202
000280 94 3f 47 bd f3 fa 6f 3d d4 b7 3e bd d8 9a 0d bd
       -0.048644617 0.058588933 -0.04656203 -0.0345715
000290 37 b8 97 bc db be 04 3d 96 31 ad bc fb 5d 45 bd
       -0.018520458 0.032408576 -0.021141808 -0.04818533
0002a0 63 0e aa bc 9c 68 e9 3c ef 05 c8 bc 0b 9c 2e 3c
       -0.020758813 0.028492264 -0.024416892 0.010657321
0002b0 81 30 9f 3c 1c 34 ad bc b9 b1 7c 3c 10 ea 10 3d
       0.019432308 -0.021143012 0.015423232 0.03537947
0002c0 58 3a b7 3c ba d5 20 3c 58 e0 11 bb 51 ce 73 3d
       0.022366688 0.009816581 -0.0022258963 0.05952293
0002d0 7f c6 cc 3c 80 c0 55 3d 33 2e fa bb 48 80 d7 bb
       0.024996994 0.052185535 -0.007634902 -0.0065765716
0002e0 51 5a 3f 3d 13 fe 79 bc 81 4d d0 bc e0 61 62 bc
       0.04671699 -0.01525833 -0.025427582 -0.0138172805
0002f0 f1 8b 85 bd da 3f ad bc 83 4f 5e bd 49 7e 0e bd
       -0.06520832 -0.02114861 -0.054275047 -0.034788404
000300 83 6c f1 bc d7 47 13 3d d9 b0 0e 3b 2c 55 f8 3c
       -0.029470688 0.035957184 0.002177289 0.03031405
000310 0a 3b 56 bd f8 fe 7b 3d b7 71 9d 3c d2 02 ea bb
       -0.052302398 0.061522454 0.019219263 -0.0071414495
000320 f1 6b 2d 3d c6 02 c8 bb 30 5f 18 bd bf ef 95 3c
       0.04233927 -0.0061038462 -0.037200153 0.018302796
000330 dd 6f 32 bd a6 08 32 bd 96 cf d7 3c 0d 3c 65 bd
       -0.043563712 -0.04346528 0.026344102 -0.055965472
000340 df 3a d1 bc b3 5a 17 3d f1 86 96 ba e5 27 82 bc
       -0.025540767 0.036951732 -0.0011484307 -0.015888164
000350 00 93 1d 3d 86 18 17 bd 91 58 53 3d 44 22 4c 3d
       0.03847027 -0.03688862 0.051598135 0.049837366
000360 09 67 a3 3c 70 3f 1f bd 83 dd 34 bc a3 57 ff 3c
       0.019946592 -0.038878858 -0.011039141 0.031169718
000370 ab 73 00 3d 3f 1b d9 bc 0b 77 32 3d 11 99 26 3d
       0.03136031 -0.02650225 0.04357056 0.04067332
000380 6b 71 27 3c 3f 3c 21 3c 05 f0 33 bd 71 c6 34 bd
       0.010219912 0.009841024 -0.043930072 -0.04413456
000390 08 99 99 3c 1f f3 cf 3c c4 87 58 3b 5f 7e 29 3d
       0.018749729 0.025384484 0.0033039907 0.041380282
0003a0 22 01 88 b9 72 c2 1f 3c ac 19 5b bd 62 f2 2f 3d
       -0.00025940785 0.009750949 -0.05349128 0.042955764
0003b0 39 31 74 bb 04 2c 56 bd d5 11 92 bc a8 eb 68 bd
       -0.0037260784 -0.05228807 -0.017830769 -0.056865364
0003c0 65 d2 f5 ba 5d 16 03 3d c5 a0 84 bd ba d5 62 3d
       -0.0018754719 0.03200375 -0.06475977 0.055379607
0003d0 6f 81 ec 3c 78 01 f6 3c 60 64 ab bb 82 f2 3f 3c
       0.028870312 0.030029997 -0.0052304715 0.011715533
0003e0 9d e3 00 3d 3e cb 11 bd 2d a1 bd bc 7f 2e f0 3c
       0.03146707 -0.035594217 -0.023148144 0.029319046
0003f0 5d 3b 3d 3b d1 1d 2c bd 55 15 78 3d a7 09 7d bc
       0.0028874495 -0.042020623 0.06056722 -0.015444196

weight f4 [4, 300]
000000 ad 92 6e 3c 7e 7b 29 bd 70 08 ae bd 9f d2 7e 3d
       0.014561337 -0.041377537 -0.08497703 0.062212583
000010 ea a1 21 3d 8d b3 d0 3c 73 f9 8a bd 33 84 ab bc
       0.039461054 0.025476241 -0.0678586 -0.020937061
000020 80 94 a1 bc 5a 92 35 3d 9f 86 45 39 45 d1 7b 3d
       -0.01972413 0.044329025 0.00018837534 0.06147887
000030 93 68 e6 3c 0c 27 75 bc eb d3 c7 3d 97 98 5b bc
       0.028126037 -0.014962923 0.09757217 -0.0134030795
000040 df 0a 61 3d 3f 7b 79 3d 33 b9 9a bd fe 5f 77 3d
       0.054942008 0.060908552 -0.07554855 0.06039428
000050 32 8c 20 bd 45 ac 43 bd ea 6e 8d 3c d3 3a 8e 3d
       -0.0391962 -0.04777171 0.017264802 0.069448136
000060 34 b8 a4 bd 4f c6 a2 3d ba ce a6 3c 5f 82 ba bd
       -0.080429465 0.079479806 0.020362247 -0.091068976
000070 42 59 73 3d d8 3b 5e 3d cf 3f a8 3d b7 34 60 bd
       0.059411295 0.05425629 0.082152955 -0.054737773
000080 77 26 fa 3c 0a 63 42 3d e7 2f cb bd 9b 15 a9 bd
       0.03053592 0.047457732 -0.09921246 -0.08256074
000090 64 68 f2 3c 9e b7 89 bc 15 e7 a9 bc 91 04 c0 bc
       0.029590793 -0.016811188 -0.020740071 -0.023439677
0000a0 c5 e9 91 3d c8 9e 96 bd 21 f5 e0 3d 59 1c 5c bc
       0.07124666 -0.07354504 0.10984255 -0.013434493
0000b0 1e 36 b3 3c 9b 7f 36 3c 78 45 f9 3c ca 5a a8 3d
       0.021876391 0.011138822 0.030428633 0.08220442
0000c0 35 f6 fd bb a3 3c 45 3d 26 8b 08 be 3f 2d 76 3d
       -0.0077502974 0.04815353 -0.13334331 0.060101744
0000d0 64 96 2b bc 80 37 44 3d dc d4 63 bd e2 90 a2 3c
       -0.010472868 0.04790449 -0.05562292 0.019844476
0000e0 c7 08 29 3d 76 ee d5 3c a0 b1 0a bd 4c f6 99 bd
       0.041268136 0.026114684 -0.033860803 -0.075176805
0000f0 7c 25 f1 bb ac 03 a1 bd 3e 33 ad 3c b2 1d 2f bd
       -0.007359205 -0.078620285 0.021142598 -0.04275293
000100 6e a4 80 3c 51 13 41 3d 20 0c 54 bd 93 cb 78 bc
       0.015703406 0.047137562 -0.051769376 -0.015185255
000110 a2 35 9f bc e2 ac 91 bd cb 75 10 3d 4c ca ba 3c
       -0.019434754 -0.07113053 0.035268586 0.02280154
000120 17 4b 99 bc 3d cb b9 3c 66 59 24 bd c0 56 12 3d
       -0.018712563 0.02267992 -0.04012432 0.035727262
000130 02 d5 46 bd 3e 72 ab 3c 43 4e 3f 3d 79 b5 d2 bc
       -0.048542984 0.020928498 0.046705496 -0.025721299
000140 53 8b 65 bb 1d 07 e8 3c 73 2d f7 bc 48 33 8b bd
       -0.003502567 0.028323704 -0.030173039 -0.067968905
000150 28 65 11 bd f8 fd 0f 3d f4 d3 75 3c a0 27 58 3d
       -0.03549686 0.035154313 0.015004147 0.052772164
000160 98 cf 13 3d c4 cb 9d bc 72 0c 9b 3c 18 5c 10 bd
       0.03608665 -0.019262202 0.018926833 -0.035244077
000170 fa d9 29 bd 3c ee 1a bd c9 6a dd bc 01 be cf bc
       -0.041467644 -0.037824854 -0.027028458 -0.025359156
000180 7f 28 58 bd ca dd cb bc 55 e2 87 3c f4 bf ca 3c
       -0.052772995 -0.02488603 0.016587416 0.024749734
000190 33 2b ef bc 67 11 97 bd e4 09 91 3c fc 1b b6 bc
       -0.029195404 -0.07376366 0.017704912 -0.02223014
0001a0 05 a4 4d bd 50 db 97 3d 5c 6b 95 bb 20 4c 65 3d
       -0.05020525 0.074148774 -0.0045599174 0.0559808
0001b0 a8 7c 0f bd d5 2c 1a 3d 54 5a 9c 3d cf 45 28 bd
       -0.03503099 0.03764041 0.07634416 -0.0410822
0001c0 f9 8e 01 3d 4f ec 82 3d 68 46 05 bb 02 c4 3f bd
       0.03163049 0.063927285 -0.0020336155 -0.046817787
0001d0 2f 88 8e 3a c9 c0 56 bd fd ec 96 bd 30 09 ca 3c
       0.0010874326 -0.052429948 -0.07369421 0.024662584
0001e0 ad f6 53 bd d2 c1 8d bc a7 5d 8d bd 82 94 96 3c
       -0.05174892 -0.017304335 -0.069026284 0.01838136
0001f0 df c0 80 bd 43 cc b4 bc 67 96 44 bb 20 85 9b bd
       -0.06286787 -0.022070056 -0.0029996873 -0.07593751
000200 cc fb 55 bc 00 5d ac bd 88 10 51 bd a8 ee 44 3c
       -0.013060521 -0.08416176 -0.051041156 0.012019791
000210 f6 d6 92 3c c7 41 48 3d c3 65 c5 3c 26 cb 37 3d
       0.017924767 0.048890855 0.024096375 0.04487147
000220 f8 48 be 3d 75 a6 a1 bc ed 84 0d 3d 1b 0c d8 39
       0.092912614 -0.019732693 0.034550596 0.0004120775
000230 bf fe 21 3d bd 81 6d bd 58 20 1d 3d 62 d2 32 3c
       0.039549585 -0.057985056 0.038360924 0.010914417
000240 6e 11 ee 3c de 52 78 bd 3b 83 16 3d 96 6b 59 3d
       0.029061045 -0.060625903 0.036746245 0.053081118
000250 1c 36 60 3d 29 39 9e bd 48 b4 98 3d c7 cb d5 3b
       0.054739103 -0.07725746 0.07456261 0.0065245363
000260 db 55 a3 3d 99 8b 9a 3d b6 54 ec bb cc cc d7 bc
       0.0797536 0.075461574 -0.007212247 -0.026342772
000270 a2 d3 35 bd be c7 1b 3d b8 94 5a bd 98 b3 03 3c
       -0.044391282 0.038032286 -0.053364486 0.008038424
000280 79 e4 8e 3c d5 0f 68 3d 3a 75 30 bd 27 48 1c 3c
       0.017442929 0.056655724 -0.043080546 0.009538687
000290 ec e9 a9 3d 5c 4f 60 3d 24 56 ad bb 37 86 2f 3d
       0.0829657 0.054763183 -0.00528981 0.042852607
0002a0 3e 9b ee 3a 2c d3 5f bd d8 f8 5f 3d 9b 02 b8 3c
       0.0018204225 -0.05464475 0.054680675 0.02246218
0002b0 c1 18 89 3d fe 9c 9b bc 7d a0 9e bc aa ad 64 bd
       0.066941746 -0.018995758 -0.019363636 -0.05582968
0002c0 a4 6f 91 bd 8a 8b 56 3d c9 d0 8c bc c6 36 bf 3d
       -0.07101372 0.05237917 -0.0171894 0.09336619
0002d0 74 cb 62 bd 3d 31 fe bc 6b 4f 9e bc ce f7 98 bc
       -0.05536981 -0.031029338 -0.019324979 -0.01867285
0002e0 2c ed 67 3b ca b7 08 bd b4 97 ff bc 45 16 c5 3c
       0.0035389168 -0.0333784 -0.031200267 0.02405847
0002f0 09 42 b0 3d 0f 89 cc bd 74 f9 66 3c 48 2a f8 3b
       0.08606345 -0.09987079 0.01409756 0.0075733997
000300 1d dd a2 3d ce fe 98 3c d3 94 92 3c d1 24 7d 3d
       0.0795233 0.018676188 0.01789323 0.06180269
000310 ab 81 2e 3d 36 40 93 3d 3b e5 1c 3c 8f 40 47 3c
       0.04260413 0.07189982 0.009576137 0.012161388
000320 ca 57 99 bb 5f dd b1 3d c2 cb 49 bc 4d cf e4 3c
       -0.0046796547 0.08684801 -0.012316646 0.02793088
000330 f1 e4 66 bd 63 a5 94 bd e0 bf 24 3d de 71 ff bc
       -0.05637068 -0.072581075 0.04022205 -0.031182226
000340 ec 1a e7 bc 7a 78 2e 3d df 04 e4 bc a6 44 93 3d
       -0.02821108 0.042595364 -0.027834354 0.07190828
000350 94 fd 2d 3d 57 f8 13 3d 0e de da 3c 1c 08 07 3d
       0.04247816 0.036125507 0.026717212 0.032966718
000360 2b 14 01 3c 79 90 2a bd 5c f6 73 bd 46 b1 23 bd
       0.007878344 -0.041641686 -0.05956112 -0.039963983
000370 e8 4e cc 3b c8 b2 4a 3c 17 fc ac 3c 38 94 22 bc
       0.0062349923 0.012371726 0.0211163 -0.009923033
000380 ed c4 82 3d fd 3b 85 bc bd 90 4a bd bb 7f 47 bd
       0.06385217 -0.016263956 -0.04945444 -0.048705798
000390 78 49 37 3d e2 de 9f bc 8a 3b a2 bc 9b 5a be 3d
       0.0447478 -0.019515458 -0.019803781 0.09294625
0003a0 4d 4c c0 3c cb 27 03 3d 09 5e 4a bc 56 0e dc 3c
       0.023473883 0.03202037 -0.012351521 0.026862305
0003b0 59 14 05 3d fe 4b e4 bc 85 70 c7 3a 56 c1 6b bb
       0.03249011 -0.027868267 0.0015216029 -0.0035973391
0003c0 53 6a 7f bc bc 6e 12 bd 0a 1b 00 3c df 19 0e 3d
       -0.0155893145 -0.035750136 0.007818947 0.03469264
0003d0 d0 94 b0 bd 1a b4 eb bd 38 a7 83 3c ab aa 26 bd
       -0.08622134 -0.11508961 0.016070947 -0.040690105
0003e0 0c 69 f6 3c 60 90 1b 3d 3d 1c e3 bc ce ed a7 3d
       0.030079387 0.037979484 -0.027723426 0.081996545
0003f0 c7 81 bf bc 14 3a 9d bd d9 ba 60 3d d7 78 21 3d
       -0.023377312 -0.07677093 0.05486569 0.039421882

bias f4 [4]
000000 01 63 5f 3c 73 b0 4e bb 87 7f 77 3c 93 6b 04 3d
       0.013634444 -0.0031538277 0.0151060885 0.032329153

class_weights f4 [2]
000000 9a 3e 1c 3f eb 04 31 40
       0.6103302 2.7659252

class_weights f4 [2]
000000 6a 2f 16 3f a7 a0 58 40
       0.586661 3.3848054
